{"format": "torch", "nodes": [{"name": "_fsdp_wrapped_module", "id": 140643739153072, "class_name": "FlattenParamsWrapper(\n  (_fpw_module): LongformerForQuestionAnswering(\n    (longformer): LongformerModel(\n      (embeddings): LongformerEmbeddings(\n        (word_embeddings): Embedding(50265, 768, padding_idx=1)\n        (position_embeddings): Embedding(4098, 768, padding_idx=1)\n        (token_type_embeddings): Embedding(1, 768)\n        (LayerNorm): LayerNorm((768,), eps=1e-05, elementwise_affine=True)\n        (dropout): Dropout(p=0.1, inplace=False)\n      )\n      (encoder): LongformerEncoder(\n        (layer): ModuleList(\n          (0): LongformerLayer(\n            (attention): LongformerAttention(\n              (self): LongformerSelfAttention(\n                (query): Linear(in_features=768, out_features=768, bias=True)\n                (key): Linear(in_features=768, out_features=768, bias=True)\n                (value): Linear(in_features=768, out_features=768, bias=True)\n                (query_global): Linear(in_features=768, out_features=768, bias=True)\n                (key_global): Linear(in_features=768, out_features=768, bias=True)\n                (value_global): Linear(in_features=768, out_features=768, bias=True)\n              )\n              (output): LongformerSelfOutput(\n                (dense): Linear(in_features=768, out_features=768, bias=True)\n                (LayerNorm): LayerNorm((768,), eps=1e-05, elementwise_affine=True)\n                (dropout): Dropout(p=0.1, inplace=False)\n              )\n            )\n            (intermediate): LongformerIntermediate(\n              (dense): Linear(in_features=768, out_features=3072, bias=True)\n            )\n            (output): LongformerOutput(\n              (dense): Linear(in_features=3072, out_features=768, bias=True)\n              (LayerNorm): LayerNorm((768,), eps=1e-05, elementwise_affine=True)\n              (dropout): Dropout(p=0.1, inplace=False)\n            )\n          )\n          (1): LongformerLayer(\n            (attention): LongformerAttention(\n              (self): LongformerSelfAttention(\n                (query): Linear(in_features=768, out_features=768, bias=True)\n                (key): Linear(in_features=768, out_features=768, bias=True)\n                (value): Linear(in_features=768, out_features=768, bias=True)\n                (query_global): Linear(in_features=768, out_features=768, bias=True)\n                (key_global): Linear(in_features=768, out_features=768, bias=True)\n                (value_global): Linear(in_features=768, out_features=768, bias=True)\n              )\n              (output): LongformerSelfOutput(\n                (dense): Linear(in_features=768, out_features=768, bias=True)\n                (LayerNorm): LayerNorm((768,), eps=1e-05, elementwise_affine=True)\n                (dropout): Dropout(p=0.1, inplace=False)\n              )\n            )\n            (intermediate): LongformerIntermediate(\n              (dense): Linear(in_features=768, out_features=3072, bias=True)\n            )\n            (output): LongformerOutput(\n              (dense): Linear(in_features=3072, out_features=768, bias=True)\n              (LayerNorm): LayerNorm((768,), eps=1e-05, elementwise_affine=True)\n              (dropout): Dropout(p=0.1, inplace=False)\n            )\n          )\n          (2): LongformerLayer(\n            (attention): LongformerAttention(\n              (self): LongformerSelfAttention(\n                (query): Linear(in_features=768, out_features=768, bias=True)\n                (key): Linear(in_features=768, out_features=768, bias=True)\n                (value): Linear(in_features=768, out_features=768, bias=True)\n                (query_global): Linear(in_features=768, out_features=768, bias=True)\n                (key_global): Linear(in_features=768, out_features=768, bias=True)\n                (value_global): Linear(in_features=768, out_features=768, bias=True)\n              )\n              (output): LongformerSelfOutput(\n                (dense): Linear(in_features=768, out_features=768, bias=True)\n                (LayerNorm): LayerNorm((768,), eps=1e-05, elementwise_affine=True)\n                (dropout): Dropout(p=0.1, inplace=False)\n              )\n            )\n            (intermediate): LongformerIntermediate(\n              (dense): Linear(in_features=768, out_features=3072, bias=True)\n            )\n            (output): LongformerOutput(\n              (dense): Linear(in_features=3072, out_features=768, bias=True)\n              (LayerNorm): LayerNorm((768,), eps=1e-05, elementwise_affine=True)\n              (dropout): Dropout(p=0.1, inplace=False)\n            )\n          )\n          (3): LongformerLayer(\n            (attention): LongformerAttention(\n              (self): LongformerSelfAttention(\n                (query): Linear(in_features=768, out_features=768, bias=True)\n                (key): Linear(in_features=768, out_features=768, bias=True)\n                (value): Linear(in_features=768, out_features=768, bias=True)\n                (query_global): Linear(in_features=768, out_features=768, bias=True)\n                (key_global): Linear(in_features=768, out_features=768, bias=True)\n                (value_global): Linear(in_features=768, out_features=768, bias=True)\n              )\n              (output): LongformerSelfOutput(\n                (dense): Linear(in_features=768, out_features=768, bias=True)\n                (LayerNorm): LayerNorm((768,), eps=1e-05, elementwise_affine=True)\n                (dropout): Dropout(p=0.1, inplace=False)\n              )\n            )\n            (intermediate): LongformerIntermediate(\n              (dense): Linear(in_features=768, out_features=3072, bias=True)\n            )\n            (output): LongformerOutput(\n              (dense): Linear(in_features=3072, out_features=768, bias=True)\n              (LayerNorm): LayerNorm((768,), eps=1e-05, elementwise_affine=True)\n              (dropout): Dropout(p=0.1, inplace=False)\n            )\n          )\n          (4): LongformerLayer(\n            (attention): LongformerAttention(\n              (self): LongformerSelfAttention(\n                (query): Linear(in_features=768, out_features=768, bias=True)\n                (key): Linear(in_features=768, out_features=768, bias=True)\n                (value): Linear(in_features=768, out_features=768, bias=True)\n                (query_global): Linear(in_features=768, out_features=768, bias=True)\n                (key_global): Linear(in_features=768, out_features=768, bias=True)\n                (value_global): Linear(in_features=768, out_features=768, bias=True)\n              )\n              (output): LongformerSelfOutput(\n                (dense): Linear(in_features=768, out_features=768, bias=True)\n                (LayerNorm): LayerNorm((768,), eps=1e-05, elementwise_affine=True)\n                (dropout): Dropout(p=0.1, inplace=False)\n              )\n            )\n            (intermediate): LongformerIntermediate(\n              (dense): Linear(in_features=768, out_features=3072, bias=True)\n            )\n            (output): LongformerOutput(\n              (dense): Linear(in_features=3072, out_features=768, bias=True)\n              (LayerNorm): LayerNorm((768,), eps=1e-05, elementwise_affine=True)\n              (dropout): Dropout(p=0.1, inplace=False)\n            )\n          )\n          (5): LongformerLayer(\n            (attention): LongformerAttention(\n              (self): LongformerSelfAttention(\n                (query): Linear(in_features=768, out_features=768, bias=True)\n                (key): Linear(in_features=768, out_features=768, bias=True)\n                (value): Linear(in_features=768, out_features=768, bias=True)\n                (query_global): Linear(in_features=768, out_features=768, bias=True)\n                (key_global): Linear(in_features=768, out_features=768, bias=True)\n                (value_global): Linear(in_features=768, out_features=768, bias=True)\n              )\n              (output): LongformerSelfOutput(\n                (dense): Linear(in_features=768, out_features=768, bias=True)\n                (LayerNorm): LayerNorm((768,), eps=1e-05, elementwise_affine=True)\n                (dropout): Dropout(p=0.1, inplace=False)\n              )\n            )\n            (intermediate): LongformerIntermediate(\n              (dense): Linear(in_features=768, out_features=3072, bias=True)\n            )\n            (output): LongformerOutput(\n              (dense): Linear(in_features=3072, out_features=768, bias=True)\n              (LayerNorm): LayerNorm((768,), eps=1e-05, elementwise_affine=True)\n              (dropout): Dropout(p=0.1, inplace=False)\n            )\n          )\n          (6): LongformerLayer(\n            (attention): LongformerAttention(\n              (self): LongformerSelfAttention(\n                (query): Linear(in_features=768, out_features=768, bias=True)\n                (key): Linear(in_features=768, out_features=768, bias=True)\n                (value): Linear(in_features=768, out_features=768, bias=True)\n                (query_global): Linear(in_features=768, out_features=768, bias=True)\n                (key_global): Linear(in_features=768, out_features=768, bias=True)\n                (value_global): Linear(in_features=768, out_features=768, bias=True)\n              )\n              (output): LongformerSelfOutput(\n                (dense): Linear(in_features=768, out_features=768, bias=True)\n                (LayerNorm): LayerNorm((768,), eps=1e-05, elementwise_affine=True)\n                (dropout): Dropout(p=0.1, inplace=False)\n              )\n            )\n            (intermediate): LongformerIntermediate(\n              (dense): Linear(in_features=768, out_features=3072, bias=True)\n            )\n            (output): LongformerOutput(\n              (dense): Linear(in_features=3072, out_features=768, bias=True)\n              (LayerNorm): LayerNorm((768,), eps=1e-05, elementwise_affine=True)\n              (dropout): Dropout(p=0.1, inplace=False)\n            )\n          )\n          (7): LongformerLayer(\n            (attention): LongformerAttention(\n              (self): LongformerSelfAttention(\n                (query): Linear(in_features=768, out_features=768, bias=True)\n                (key): Linear(in_features=768, out_features=768, bias=True)\n                (value): Linear(in_features=768, out_features=768, bias=True)\n                (query_global): Linear(in_features=768, out_features=768, bias=True)\n                (key_global): Linear(in_features=768, out_features=768, bias=True)\n                (value_global): Linear(in_features=768, out_features=768, bias=True)\n              )\n              (output): LongformerSelfOutput(\n                (dense): Linear(in_features=768, out_features=768, bias=True)\n                (LayerNorm): LayerNorm((768,), eps=1e-05, elementwise_affine=True)\n                (dropout): Dropout(p=0.1, inplace=False)\n              )\n            )\n            (intermediate): LongformerIntermediate(\n              (dense): Linear(in_features=768, out_features=3072, bias=True)\n            )\n            (output): LongformerOutput(\n              (dense): Linear(in_features=3072, out_features=768, bias=True)\n              (LayerNorm): LayerNorm((768,), eps=1e-05, elementwise_affine=True)\n              (dropout): Dropout(p=0.1, inplace=False)\n            )\n          )\n          (8): LongformerLayer(\n            (attention): LongformerAttention(\n              (self): LongformerSelfAttention(\n                (query): Linear(in_features=768, out_features=768, bias=True)\n                (key): Linear(in_features=768, out_features=768, bias=True)\n                (value): Linear(in_features=768, out_features=768, bias=True)\n                (query_global): Linear(in_features=768, out_features=768, bias=True)\n                (key_global): Linear(in_features=768, out_features=768, bias=True)\n                (value_global): Linear(in_features=768, out_features=768, bias=True)\n              )\n              (output): LongformerSelfOutput(\n                (dense): Linear(in_features=768, out_features=768, bias=True)\n                (LayerNorm): LayerNorm((768,), eps=1e-05, elementwise_affine=True)\n                (dropout): Dropout(p=0.1, inplace=False)\n              )\n            )\n            (intermediate): LongformerIntermediate(\n              (dense): Linear(in_features=768, out_features=3072, bias=True)\n            )\n            (output): LongformerOutput(\n              (dense): Linear(in_features=3072, out_features=768, bias=True)\n              (LayerNorm): LayerNorm((768,), eps=1e-05, elementwise_affine=True)\n              (dropout): Dropout(p=0.1, inplace=False)\n            )\n          )\n          (9): LongformerLayer(\n            (attention): LongformerAttention(\n              (self): LongformerSelfAttention(\n                (query): Linear(in_features=768, out_features=768, bias=True)\n                (key): Linear(in_features=768, out_features=768, bias=True)\n                (value): Linear(in_features=768, out_features=768, bias=True)\n                (query_global): Linear(in_features=768, out_features=768, bias=True)\n                (key_global): Linear(in_features=768, out_features=768, bias=True)\n                (value_global): Linear(in_features=768, out_features=768, bias=True)\n              )\n              (output): LongformerSelfOutput(\n                (dense): Linear(in_features=768, out_features=768, bias=True)\n                (LayerNorm): LayerNorm((768,), eps=1e-05, elementwise_affine=True)\n                (dropout): Dropout(p=0.1, inplace=False)\n              )\n            )\n            (intermediate): LongformerIntermediate(\n              (dense): Linear(in_features=768, out_features=3072, bias=True)\n            )\n            (output): LongformerOutput(\n              (dense): Linear(in_features=3072, out_features=768, bias=True)\n              (LayerNorm): LayerNorm((768,), eps=1e-05, elementwise_affine=True)\n              (dropout): Dropout(p=0.1, inplace=False)\n            )\n          )\n          (10): LongformerLayer(\n            (attention): LongformerAttention(\n              (self): LongformerSelfAttention(\n                (query): Linear(in_features=768, out_features=768, bias=True)\n                (key): Linear(in_features=768, out_features=768, bias=True)\n                (value): Linear(in_features=768, out_features=768, bias=True)\n                (query_global): Linear(in_features=768, out_features=768, bias=True)\n                (key_global): Linear(in_features=768, out_features=768, bias=True)\n                (value_global): Linear(in_features=768, out_features=768, bias=True)\n              )\n              (output): LongformerSelfOutput(\n                (dense): Linear(in_features=768, out_features=768, bias=True)\n                (LayerNorm): LayerNorm((768,), eps=1e-05, elementwise_affine=True)\n                (dropout): Dropout(p=0.1, inplace=False)\n              )\n            )\n            (intermediate): LongformerIntermediate(\n              (dense): Linear(in_features=768, out_features=3072, bias=True)\n            )\n            (output): LongformerOutput(\n              (dense): Linear(in_features=3072, out_features=768, bias=True)\n              (LayerNorm): LayerNorm((768,), eps=1e-05, elementwise_affine=True)\n              (dropout): Dropout(p=0.1, inplace=False)\n            )\n          )\n          (11): LongformerLayer(\n            (attention): LongformerAttention(\n              (self): LongformerSelfAttention(\n                (query): Linear(in_features=768, out_features=768, bias=True)\n                (key): Linear(in_features=768, out_features=768, bias=True)\n                (value): Linear(in_features=768, out_features=768, bias=True)\n                (query_global): Linear(in_features=768, out_features=768, bias=True)\n                (key_global): Linear(in_features=768, out_features=768, bias=True)\n                (value_global): Linear(in_features=768, out_features=768, bias=True)\n              )\n              (output): LongformerSelfOutput(\n                (dense): Linear(in_features=768, out_features=768, bias=True)\n                (LayerNorm): LayerNorm((768,), eps=1e-05, elementwise_affine=True)\n                (dropout): Dropout(p=0.1, inplace=False)\n              )\n            )\n            (intermediate): LongformerIntermediate(\n              (dense): Linear(in_features=768, out_features=3072, bias=True)\n            )\n            (output): LongformerOutput(\n              (dense): Linear(in_features=3072, out_features=768, bias=True)\n              (LayerNorm): LayerNorm((768,), eps=1e-05, elementwise_affine=True)\n              (dropout): Dropout(p=0.1, inplace=False)\n            )\n          )\n        )\n      )\n    )\n    (qa_outputs): Linear(in_features=768, out_features=2, bias=True)\n  )\n)", "parameters": [["flat_param", [148070402]]], "output_shape": [[[[0], [0], [0], 0], [0, [0], [0], [0], 0, [0], 0, 0, [0], [0], 0, 0], [[0], [0], [0], 0, 0, 0, 0, 0, 0, 0]]], "num_parameters": [148070402]}], "edges": []}